lstm_model_epoch3_batch123471.npz (npz, 945526 bytes, 10 tensors)

Wf f8 [228, 128]
-0.015348471062746552 0.026456835954724978 0.01383062476960017 -0.004703280862839313 0.0038491491571175543 -0.020394596166980177 -0.005606355479020741 0.0015744802306816503
-0.003529746416192329 -0.00285622137562034 -0.006393506956383918 0.003391039570989303 -0.006213060922632635 0.003252867759193976 0.01561263808092171 -0.006149336137710367
0.0010542634064450093 0.010399781406798767 -0.014401621730395189 0.01283034395670524 -0.019792188839164032 -0.015379230506552218 -0.004320490969806741 -0.015065922742334136
0.006740681778740058 0.004967725413609091 -0.020356558050313677 0.0009932161714908646 -0.023176806335209556 0.012029487206110828 0.0033241336331675713 -0.011611512616169377
0.02086133858189145 -0.015847062423134748 0.008844720644251049 -9.567526128834209e-05 -0.010414756076750336 0.012540942715787137 0.004267531812918012 0.0035128651959127856
-0.0028085333143867052 0.005635439930945918 0.01538765688781124 0.0016458191338765435 0.009528008308542581 0.0010121561482806694 0.005954405666376066 0.009615301777062933
-0.0038012969214779014 0.008219152932177079 0.013152618147870481 0.01398016839446294 -0.003247549707326522 0.009284211304199845 0.007203632933229543 -0.012071876252257417
0.0023375122985184273 -0.021256638921388613 0.013441349110905484 0.00025663855189122923 0.02146053626581893 -0.00535161225537273 0.012250534561642861 0.0009537727094860976
-0.009835195428106158 -0.01913890974054528 0.0001245384477199674 -0.016375975586925773 -0.006148442431179915 -0.004869213394882902 0.0007388869883609373 -0.008901996897171763
0.010338205729863712 0.020391861081733655 -0.0007202904943126262 -0.0041150618128169714 -0.007431144484688057 0.002611354817647892 0.004051941948679793 -0.009933715510516422
-0.010753141599945415 0.01299460944615712 -0.004541273144670646 0.019349747933203747 0.001271379823216901 0.013326102665058322 -0.013710266082800227 -0.008868533110768316
-0.00030478959644152006 -0.0019927144047416153 -0.009643161468369996 0.008859720346021706 0.006207881566921611 -0.022021334357799988 -0.01363596342998105 -0.00184976722595664
-0.004638342969041373 0.022139370407529745 -0.005490113075975084 0.005028369396316144 0.0031819527818763276 0.004827915846468579 -0.006669187271448545 0.0023365706904388468
0.007305874219238594 0.006529938190095319 -0.01716622616656514 0.012522292563103596 0.006449480895694512 0.0016989757874583296 -0.007200815265933519 0.0013084262687325164
-0.01538757385928195 -0.019114747138211773 0.001478815754038873 0.009919449700226882 -0.010870931684421032 -0.0175616387030542 0.020963870618579808 0.005680415024422276
-0.011185471715953457 -0.0035584560992991026 -0.0002784023302542016 0.005313728982074988 -0.004685079191798358 0.004505651151920563 0.00431426701450171 -0.00812123202026323
-0.010212049488665956 0.008946143198535152 -0.022210251208320812 -0.0006581039033689741 0.014926433553392253 -0.0038494075405556987 0.0017227701711702138 0.020638803623580337
0.008413866810028455 0.018311316568192345 0.02252272707455838 -0.004687432799653681 -0.004514684567446792 0.007930344322225344 -0.004839118309299382 -0.005032751620846271
0.013213354655956482 0.002560203090619287 -0.009564295079503952 0.005023197702093746 0.015301545337162183 0.0047065028814035756 -0.0126709060816624 0.013325965841970341
0.0004537386210737146 0.005430951698933846 0.01205199397895672 0.005513360639586986 0.0069466449994955186 0.010066170915614773 0.0002679794561122694 0.005865657211152233
-0.00554787213237548 0.0020164375580682915 -0.00806879377651615 0.005689878895987975 -0.010208939604004487 0.016444560480958985 -0.006912974189871888 -0.0031943938840186268
0.006314378148621992 0.00028612594791029087 0.0008168844160089284 -0.012824612801429046 0.007933723727644589 0.007182526332011653 0.011442305569998316 -0.0013654063864515268
-0.00040837760976239544 -0.011083534870574344 0.015769089289491455 0.005339216110406918 -0.004894125458811559 -0.003630972931158862 0.01880502212232314 -0.007836638313355224
-4.505263145121404e-05 -0.00422668557664184 -0.009239716234786949 -0.008890369639980892 -0.0010874303355356794 0.007178154863963513 0.0023025402324239434 0.00960384468105015
-0.009313296439751248 0.021113532571375944 -0.004885817092997629 -0.0021229220493687003 0.018812876389662905 -0.014163900536524228 0.003445793835423526 0.006902498705455208
0.00995665321797898 0.012816580788969292 0.0010973096716221037 -0.0030163159935789434 -0.01757504192850029 -0.01648977966850859 -0.008935303779716299 -0.01340098489684975
0.007729113073933674 -0.005149607305700776 0.013937296077401599 0.0037670454514070473 0.013329972018842309 0.011747578868988725 2.6887325875258288e-05 0.011669622301155704
0.011389573677661257 0.005542938305084459 0.006598878894196654 -0.006683574075218346 0.0060935161432967965 -0.01483375238514471 0.006219387199811486 -0.004046939004372712
0.0016900657389694066 -0.024664420600964458 -0.0030075559147839273 0.004970931088098259 0.00375611631398862 0.00913045110194292 -0.004436808355736891 -0.005034471145593643
-0.009720010952081378 -0.00993354230803514 0.008790567899283473 0.0019390309623669906 -0.004273936492063441 -0.00254942436031854 0.012217278786370907 -0.018019058142959895
-0.020071659760539987 -0.015926199920258892 0.0049560660876799495 -0.008841755978558984 0.02163990039809845 -0.007576265580428931 0.006504707682611029 0.006613053768349028
-0.015052554562791568 -0.004992738928664185 -0.004550452295891687 -0.002380046936193633 0.007661039580058636 0.008333059429744915 -0.006191792721287313 0.014544111820032632
00000000: 1b96 10ea 046f 8fbf 7087 b934 8017 9b3f
00000010: 3da8 8c08 3b53 8c3f ea35 d657 bf43 73bf
00000020: 2770 e937 4088 6f3f eb8f 352e 52e2 94bf
00000030: 5910 ea96 b0f6 76bf 5fa0 5546 d9cb 593f
00000040: 3c88 762d 6aea 6cbf d1e6 bf2c ee65 67bf
00000050: 4af9 8cf4 1330 7abf 10a4 d181 86c7 6b3f
00000060: 863e 88d7 dd72 79bf fb3e 9b14 c2a5 6a3f
00000070: b7da b1cf 84f9 8f3f 5540 a8d9 0b30 79bf
00000080: 6000 88b6 e645 513f c5d4 3808 7b4c 853f
00000090: 4e35 bbf2 987e 8dbf 821a 869d cb46 8a3f
000000a0: 6832 1f4f 6744 94bf c49c 8160 257f 8fbf
000000b0: 3b0f b0f6 5cb2 71bf 59f8 b2eb e1da 8ebf
000000c0: d1cc adfc 1d9c 7b3f d8c8 fda2 0959 743f
000000d0: a344 577c 59d8 94bf 6fc2 5cbe d945 503f
000000e0: fa19 f124 a9bb 97bf 7069 1a71 eaa2 883f
000000f0: 6a5e bea7 363b 6b3f 1c5e 8cd7 c6c7 87bf
00000100: 050c d7bb ac5c 953f a950 615b 363a 90bf
00000110: 9446 464f 2e1d 823f 25b0 1b79 a814 19bf
00000120: b6b3 f6e5 5454 85bf d83e 9ad6 10af 893f
00000130: 4c51 23d9 d47a 713f 36e7 3624 03c7 6c3f
00000140: 2e43 85d7 eb01 67bf da54 3be3 2f15 773f
00000150: e001 c358 9083 8f3f 8976 bad6 10f7 5a3f
00000160: ae4f a6a0 6b83 833f 5136 8a63 4a95 503f
00000170: 05d0 aa99 a563 783f bfa5 63f5 2fb1 833f
00000180: fb68 b9be e523 6fbf e82e 5b08 34d5 803f
00000190: f63f 6a86 c2ef 8a3f 0ad4 5f70 a2a1 8c3f
000001a0: c78d 1ff9 9a9a 6abf af93 5dbf 9903 833f
000001b0: 670e c57d 8e81 7d3f 9f70 a3cd 23b9 88bf
000001c0: 154b 095c 1e26 633f bc02 f6e3 4cc4 95bf
000001d0: 587f c356 2387 8b3f e6a3 f02f aed1 303f
000001e0: 4a4e aa35 c0f9 953f 0218 e279 92eb 75bf
000001f0: 16fc 67ea ce16 893f e6ed 2a4c d340 4f3f
00000200: 7337 b595 7924 84bf 52bd aa7d 2699 93bf
00000210: 3f1e bf1e d152 203f d000 581e ddc4 90bf
00000220: d0b2 9cf2 1b2f 79bf 11be 9c84 bdf1 73bf
00000230: cd59 a8b9 3b36 483f 08ee 56cc 353b 82bf
00000240: df9a 127c 322c 853f a76f cda1 9ae1 943f
00000250: d4c6 ef0e 3c9a 47bf 1259 837e f4da 70bf
00000260: 7391 89a8 1e70 7ebf 6416 4871 6864 653f
00000270: 3259 7ae2 c498 703f 23a7 f6b9 2058 84bf
00000280: 2d18 023c be05 86bf 2ba9 c3f4 ea9c 8a3f
00000290: 5d8e 37ba de99 72bf 5b5e 3c9a 6bd0 933f
000002a0: 0298 bcb0 8dd4 543f d158 0939 b74a 8b3f
000002b0: ba88 8fc3 2014 8cbf 8cd9 645d aa29 82bf
000002c0: f006 5059 85f9 33bf 5134 5b66 0653 60bf
000002d0: 52f4 1739 cbbf 83bf 145b 1a89 0b25 823f
000002e0: 57fc ea84 6f6d 793f 482d 86bb c28c 96bf
000002f0: 2f8a d907 2ced 8bbf eb91 676f 7c4e 5ebf
00000300: 4a2f c1b5 a7ff 72bf 16e0 6aff b3ab 963f
00000310: 476f cd01 cd7c 76bf 980a c0a1 a098 743f
00000320: 7ca1 56e4 0911 6a3f 01dc b1ca 6fc6 733f
00000330: b95f 8c53 2651 7bbf 6d42 68d6 2424 633f
00000340: a5f2 71ad c3ec 7d3f a6b1 8aef 22bf 7a3f
00000350: 1baf ecef 0594 91bf d85c 3ca8 49a5 893f
00000360: f0f6 5e58 c56a 7a3f 50b3 675c 05d6 5b3f
00000370: fac5 2521 9a7e 7dbf 1ec6 2302 f06f 553f
00000380: 1657 ec33 8583 8fbf f3d8 51f7 d092 93bf
00000390: 5adc 3953 9a3a 583f 154f 7400 a650 843f
000003a0: 573c 7ec0 7f43 86bf 8b3c 939f adfb 91bf
000003b0: d447 d18a 8d77 953f ee21 1fcc 5844 773f
000003c0: 9bcd ae99 68e8 86bf 6a83 4392 9f26 6dbf
000003d0: 677e 50e7 d03e 32bf b944 2a43 d9c3 753f
000003e0: 5af0 865e a930 73bf e5d2 8385 8474 723f
000003f0: b966 bc3b d6ab 713f 692b 714f dda1 80bf
00000400: 88b2 a114 0eea 84bf 014f b403 5b52 823f
00000410: ae7f 4dba 48be 96bf a5fc 045f 9390 45bf
00000420: e971 a9ff bf91 8e3f a577 dcef ca88 6fbf
00000430: b9fc cb62 d239 5c3f 500c 5eaa 5622 953f
00000440: 917a 4116 4a3b 813f 8f75 3aa7 33c0 923f
00000450: 20cf cea0 3210 973f 8f34 3a29 2133 73bf
00000460: b460 1a69 fd7d 72bf e56e 14cc c83d 803f
00000470: 7122 14ee 2ed2 73bf 8743 edf9 389d 74bf
00000480: e937 f170 9a0f 8b3f a053 7391 22f9 643f
00000490: bc29 9bf4 7196 83bf ba1d a15d 3493 743f
000004a0: 2e36 69a6 6a56 8f3f 4f3b 443f 2047 733f
000004b0: abf6 d939 34f3 89bf cbbc d4db a44a 8b3f
000004c0: f172 d789 78bc 3d3f a2e1 edfe c33e 763f
000004d0: 79fe ed3f b7ae 883f 1c93 357a 2d95 763f
000004e0: 23a3 6fd1 1574 7c3f 3531 0797 929d 843f
000004f0: a222 0000 f38f 313f 425c 435e 9606 783f
00000500: 5f61 ef95 5db9 76bf 76f8 b8ab c684 603f
00000510: c13f 1b2b 5f86 80bf b26a 6c3c 454e 773f
00000520: 41ed cead 6ce8 84bf 9eeb d9c5 d7d6 903f
00000530: e478 0461 c750 7cbf c299 6528 212b 6abf
00000540: 685a 49fa 1add 793f 0e5d bc96 65c0 323f
00000550: 9ab4 f9ec 85c4 4a3f 5f2b 8764 ca43 8abf
00000560: 51dc 905f 8e3f 803f 75aa 2dbb 6c6b 7d3f
00000570: e23b b641 106f 873f 91c1 a2f1 ed5e 56bf
00000580: 0c06 757a 70c3 3abf 4275 58de f6b2 86bf
00000590: 73ef 24ab c525 903f 259f 49e9 92de 753f
000005a0: 3220 9ccc dc0b 74bf d15e bebf b3be 6dbf
000005b0: 1b51 10ac 9f41 933f f8ab 21ca a70c 80bf
000005c0: b9df 23a1 dc9e 07bf 7188 2745 0050 71bf
000005d0: d0fd 6bb8 45ec 82bf f515 d336 1d35 82bf
000005e0: 7057 946e 03d1 51bf ca79 2e46 d766 7d3f
000005f0: 181c dfdf c6dc 623f ca5a 9136 2eab 833f
00000600: 5873 037d d912 83bf e29e 962f c99e 953f
00000610: 8600 0f8a 2603 74bf fa92 c418 1764 61bf
00000620: 4463 59c3 ae43 933f a491 b48c f601 8dbf
00000630: e3f1 9e7a 5a3a 6c3f 68b5 3563 cb45 7c3f
00000640: b135 975f 2764 843f fb6a ae5a 943f 8a3f
00000650: 640d ce49 73fa 513f 9893 7f51 acb5 68bf
00000660: b025 3c19 31ff 91bf 37f5 9361 b2e2 90bf
00000670: 4112 1c2c ac4c 82bf 17e5 edbe f971 8bbf
00000680: 20f8 12fe 8fa8 7f3f 6692 712f c117 75bf
00000690: 0fe1 c636 288b 8c3f 00d9 8520 11dc 6e3f
000006a0: ae2a 058f be4c 8b3f 9159 6558 1d0f 883f
000006b0: 65cd 08f7 8231 fc3e a1ff 1e31 3ee6 873f
000006c0: 0600 b0b3 6a53 873f 05c4 e72b 31b4 763f
000006d0: 1547 a710 6d07 7b3f 73e0 2c41 3c60 7bbf
000006e0: 8e87 d9c8 83f5 783f f621 f88a 2861 8ebf
000006f0: d757 fd09 8079 793f 1254 c3ea 8593 70bf
00000700: 0cf9 ec44 a6b0 5b3f 2e79 6c3f a141 99bf
00000710: a7b9 6f49 4da3 68bf bccb 4327 665c 743f
00000720: c84e 5097 25c5 6e3f 5669 0b67 fcb2 823f
00000730: f78a 95ac 542c 72bf 0b87 c48e 069f 74bf
00000740: 6b63 3fc9 15e8 83bf 0f84 c57a 0958 84bf
00000750: 0c22 200d ca00 823f 555f 6fa4 e2c4 5f3f
00000760: 1466 5617 8c81 71bf afc7 09c8 87e2 64bf
00000770: be2a ab66 5f05 893f 5f06 b785 9673 92bf
00000780: d1e8 fd48 aa8d 94bf 7e70 3a2f f54e 90bf
00000790: f9e2 36dc cf4c 743f 8c11 2366 a01b 82bf
000007a0: b57e fe21 c528 963f a6cf 4c4e 4a08 7fbf
000007b0: 0809 452c aea4 7a3f bd85 961a 4a16 7b3f
000007c0: 152d 8cac dfd3 8ebf 3142 a826 4473 74bf
000007d0: 0591 afbc 7ea3 72bf dfeb 1ff8 517f 63bf
000007e0: b206 32a7 2e61 7f3f b39f cf4d ec10 813f
000007f0: e458 ddb3 905c 79bf e566 eea4 4dc9 8d3f

bf f8 [1, 128]
0.003927282514796425 0.005098087775943656 0.00610162491637299 0.00039357734418750547 -0.0004824988557631564 0.002583750513871572 0.011061236106204686 -0.005498626029198009
0.010719981594847066 0.012256171122962492 0.018180148446463283 -0.0051392122100614385 0.0006300846042702013 0.015107312715308716 0.017399203836251 0.005575134921209997
-0.00121234350240663 -0.0035614375829655883 -0.004580294495324888 -0.0009783858777581264 -0.0017911105377734781 0.0076678471553827164 0.007386396889594121 0.0097623395763997
0.0010777952343685561 -0.00740575970813956 -0.0006549935871752594 -0.00011174609962266646 -0.0010578891051523484 0.010772456766261615 9.167949423530645e-05 -0.02072240961647952
-0.014264534316819144 0.029743572484421117 -0.011634549607255766 0.016826073459592458 0.0012273341523894648 0.003075777109928075 0.016197717969333465 -0.003010996464255219
0.0038315636619697738 0.010943149526881272 -0.004571628344862443 -0.010614829087576542 0.0017540526162197875 0.008002090787908213 0.0078996582886694 -0.013130074738545718
0.0098541644789848 0.0039531552845233405 0.010010421572892227 0.0005485614357939825 -0.00637476966947155 -0.00020054775424198482 0.00038656696962591024 0.012374036007577876
-0.0130100698350284 0.0019713875416297187 -0.004099717298605866 -0.007755214081531106 -0.007129307578058972 -0.001389288681488871 0.0023206408449117557 -0.01308302855689022
-0.006744129698725531 -0.0007718250443137804 -0.006239104553519185 0.006822536471183802 -0.004207883722810011 -0.005654861767943288 -0.0019100829815018347 0.004916784328309166
4.066251589687119e-05 -0.005186418772479583 0.006330757825166982 -0.00041380883116392864 -0.00423211670192224 0.009896800719452476 -0.003173067150940339 0.009084111190021454
-0.021440616091339605 -0.0022818296145196864 -0.005985070011943547 0.013108995801073827 0.004423642954142847 -0.011785534401740985 -0.010334342966231348 -0.004989214152812452
-0.010449034707227321 -0.003836223218330606 -0.0063567231849191545 -0.011315407677877037 0.011206540390025136 -0.0002901752419736017 -0.013450495537840732 0.023076928247612188
0.032373395617045254 -0.011453315084149046 -0.031241530787122208 -0.013570450270383916 0.00569179814329126 -0.008501551518432779 0.010280900238143468 0.006145196023826627
0.013910420397913195 -0.0017291446467502867 0.016910399999710113 -0.009492115847910172 0.012372540598899955 -0.0013834313782728857 -0.001855648252988152 0.006354897943809766
-0.012498430227686042 -0.002978279246893631 0.008515488326823762 -0.005737543099513951 0.00715182895174245 0.012903781874004866 0.007150035258406564 0.0037075061960376338
-0.0024473064839933296 0.001924289943830523 0.006963806071011162 -0.01163856903016106 0.022373949897587453 0.012324030694899542 -0.0023701991276974662 0.0006700576397322023
00000000: d847 69df 0d16 703f ee29 5184 bbe1 743f
00000010: ee13 7e77 04fe 783f 1b05 5dd2 21cb 393f
00000020: 45da 4cce fc9e 3fbf aec4 a87e 842a 653f
00000030: 40c8 a2fa 45a7 863f dd51 7e2f ba85 76bf
00000040: e9a1 e892 5bf4 853f 75ad 2d71 c319 893f
00000050: 1652 0e1c d19d 923f 9922 e9c5 da0c 75bf
00000060: 5259 7062 88a5 443f f270 5730 95f0 8e3f
00000070: d402 d0cd 18d1 913f 95a5 84e2 f3d5 763f
00000080: 2a4e 70ec efdc 53bf 3536 423e e02c 6dbf
00000090: 4df8 0371 c9c2 72bf 3700 43d6 a507 50bf
000000a0: 0580 ba4b 7658 5dbf 85a3 350c 5268 7f3f
000000b0: ada2 37d1 3241 7e3f f864 b409 47fe 833f
000000c0: b42f 23d2 99a8 513f c1d4 f97b 8055 7ebf
000000d0: 80e4 9b04 7c76 45bf cf2f 935f 274b 1dbf
000000e0: b2cd 00c7 1b55 51bf 4bc0 11ac de0f 863f
000000f0: 11e9 c2b7 8108 183f fd6c 635e 4138 95bf
00000100: 2d38 1163 b936 8dbf 92e0 585c 1975 9e3f
00000110: 4fea 88d0 dad3 87bf 4c8a eaac da3a 913f
00000120: 1c01 ee02 d01b 543f 8f05 1a43 5f32 693f
00000130: a5df ca73 2296 903f 5f83 f46a 84aa 68bf
00000140: d0ca dc13 5f63 6f3f 0f61 aaaa 5c69 863f
00000150: e5be b023 b3b9 72bf 9c29 453e 3abd 85bf
00000160: b7ee d0a7 07bd 5c3f 2798 de71 6663 803f
00000170: e1ca fe2f b22d 803f a1ca c4cc f0e3 8abf
00000180: c349 5591 6b2e 843f 06cd 9b0a 2f31 703f
00000190: 81ad 320a 5880 843f d53c 9ab6 aaf9 413f
000001a0: d0a4 ff33 6e1c 7abf 2a46 6d17 4449 2abf
000001b0: dc8f 047e 8455 393f 69ce c6ff 8e57 893f
000001c0: 0455 ae03 06a5 8abf e1fc 9ba0 4c26 603f
000001d0: c195 867b ddca 70bf ea91 a86d eec3 7fbf
000001e0: 0a14 41ee 9e33 7dbf 4f9d e85c 19c3 56bf
000001f0: acea 1b91 bc02 633f 2d9c 465e 46cb 8abf
00000200: 99a6 ef87 bb9f 7bbf 1076 6aa9 894a 49bf
00000210: 9112 38e0 2c8e 79bf fde0 4fb0 f2f1 7b3f
00000220: 8bf1 982f 493c 71bf 0e1d b565 8d29 77bf
00000230: 8e69 0bfc 774b 5fbf 41e2 433e 9f23 743f
00000240: 488c 5868 a151 053f 65b6 2db0 5a3e 75bf
00000250: df7a 16dd 47ee 793f d587 8a65 8f1e 3bbf
00000260: 74e5 3d2d b255 71bf 1d8f 661b c644 843f
00000270: f288 8574 67fe 69bf 6382 cbc3 b09a 823f
00000280: ba6f ac63 87f4 95bf a593 38f2 57b1 62bf
00000290: 4af7 72ff cc83 78bf befa fda1 e3d8 8a3f
000002a0: d959 139d 861e 723f 6e25 92a6 0323 88bf
000002b0: 345f 8608 2c2a 85bf c4b5 e7f9 916f 74bf
000002c0: 2c0d bdb2 4d66 85bf 868f 69a8 246d 6fbf
000002d0: 4cf3 05e3 8109 7abf 23d0 564f 882c 87bf
000002e0: cfca cf63 74f3 863f 4c87 a42c 5504 33bf
000002f0: 05a4 99f3 ee8b 8bbf 7b68 7670 7aa1 973f
00000300: 5511 dfe6 3e93 a03f 43d5 bced d574 87bf
00000310: ddd9 07a4 c7fd 9fbf 6d8b d300 d3ca 8bbf
00000320: 990a 186e 4850 773f 783a e5ed 4269 81bf
00000330: 15c0 5e12 270e 853f 4090 327f b42b 793f
00000340: 6810 7605 117d 8c3f 1e59 4ded 8e54 5cbf
00000350: 2019 d8bb f550 913f eaca 1739 9a70 83bf
00000360: 16f8 ec49 c656 893f ae09 a921 88aa 56bf
00000370: 9d40 ce23 2767 5ebf 32c7 68ed 9707 7a3f
00000380: 804d a2e8 c698 89bf e026 d77e e765 68bf
00000390: a744 fc7e 9170 813f 3181 8cff 3f80 77bf
000003a0: d3e4 4477 3c4b 7d3f 3d07 2649 4c6d 8a3f
000003b0: b605 9af9 5a49 7d3f c909 933b 345f 6e3f
000003c0: 843b fca9 5f0c 64bf bf0f 1d98 0e87 5f3f
000003d0: 4476 4a75 1486 7c3f 93af da4a f6d5 87bf
000003e0: 40b3 5e5c 32e9 963f 11e2 5066 573d 893f
000003f0: 5e88 a1f7 aa6a 63bf 9a35 15d3 d9f4 453f

Wi f8 [228, 128]
0.0013263862511053456 -0.01285829692325228 0.010721973075324525 0.01019349926043457 0.008490611589682402 0.005238904661904147 0.007164064171893325 0.004642146331844313
-0.0026280535389915797 -2.3094423663244928e-05 0.0001055280984961382 0.019924442798452957 0.004425517884213426 -0.005005280476620218 -0.007608297325695768 0.003455808670612623
-0.007301095999343225 0.007996655394201012 0.013162443377790649 0.0006128438689661475 -0.0004992989584907234 -0.00455227013551925 0.0019053327203628983 0.0009564792168371346
-0.013489543260795605 0.011268510705693143 0.01091693939623871 0.021912555065612974 -0.0020676310407552983 0.004666234419670781 -0.01181209365392126 0.004516340212377032
-0.009138344302266857 -0.012280059015717415 -0.0029376128333522054 0.005833779822486376 0.005378619282390061 -0.0016127148156207878 -0.01873248234524275 -0.008088316013446955
-0.000840010906044407 -0.007302751669911138 0.0022452517968696256 -0.010743158878110278 -0.011360887135127298 0.007152490032130789 0.009382066487191169 0.023206024393929003
-0.00019046508031006737 -0.008239192869740218 -0.010063882353678 0.004432182646652481 -0.007730064852391709 -0.004752542619380862 0.007525199097887134 0.009033835136339234
-0.001907552602888032 -0.013271966556854187 0.001713033288849509 -0.007900103877040448 -0.0040151245076370185 0.0014620675102430588 -0.007668010289005724 -0.011706089867029028
0.007703102578707077 0.0068544765480973505 -0.00876805697455148 -0.0013832519546088569 0.011319461923359118 -0.007382851441842936 -0.003648039919388793 0.013653318730790839
0.012590276123931406 -0.007705239965626552 -0.0011112373317570096 -0.005853343051537591 0.01896746062133183 0.02284621811278346 0.0070024494275309525 0.00664466671282148
0.007716526274363741 0.014058647337770454 0.004722111271596748 0.007218128303381669 0.004417665812882701 -0.0009484721910778258 0.004873741049161499 -0.00271775962674228
0.005732551011380942 0.0014296829303820356 -0.006030782357660928 0.013529306946420227 -0.003387615116212869 0.001096875597095158 0.016385149943585704 -0.006704597810503855
0.0039410262918403854 -0.00019536655271972444 -0.012660486582463807 0.001325204039093101 0.008314172221624774 -0.011021762375834626 0.002620789097887489 0.0027861074112524443
-0.01317902617735519 0.0033036953115900673 0.009424269505033875 0.009703600831709751 0.01234068122170119 -0.0036752007740819244 0.009682168542496395 0.007568719565502468
0.01016015784201742 -0.003852921630257703 -0.003931639288260854 -0.013876529381255793 -0.007516267851133952 0.004683525508143178 -0.0006019366667289304 0.0028855031836623303
0.005198695591809962 -0.01117653724596358 -0.004765570122279867 -0.0077408959763999 0.003983444530317162 -0.005614118641241937 -0.003800306532095939 0.018403737535065502
0.007444954002912736 -0.014427895194144929 0.015060020725926333 0.02006312933146576 -0.00532832790032479 -0.003385259709821213 0.005747192698493302 0.007578252854013376
0.004162726417515168 -0.0007828360333120458 0.00011124645982647388 0.01992684449724655 -0.01305171928118247 -0.023196856464590878 0.00241958359041553 -0.0080065827050228
-0.007662454016561433 0.013482863882047435 -0.010496131798434172 0.00770658471953754 0.011252932709120804 -0.014658844614670742 0.018648210241243465 0.0059159351001399985
-0.0019462964768885485 -0.014485066537961172 0.007820331656433081 -0.008848280680809452 -0.00021859248086906113 0.010676042596826616 0.006906944725287459 0.005959058368262759
0.011605994478985977 -0.005039147518597495 0.004111958898216564 0.0008727741162301704 0.005570004878128849 -0.010472681847967189 0.017636251654480115 0.0011344025057908414
-0.029639330604903275 0.00963134956438614 0.002367902295379969 -0.006997107546108275 -0.004673128109948941 -0.005203976152247928 0.008799810562772315 -0.002928238607342692
0.012505738290109944 -0.001945015778387596 0.0013401631479522695 0.00496356074372382 0.020740306808088905 0.0042004891900409985 -0.020012165850396713 0.006693612752879092
-0.00035506220958630237 0.00012693681867350965 0.001012682579639049 -0.0010422933538461426 0.009555640141831807 0.01214967305998878 0.005524102981305575 -0.008886772647003133
-0.014566954940352666 -0.014989068713708477 -0.009965934380468043 -0.015804669734007334 0.002154120402170488 0.019606164134896617 0.004259982802936888 -0.0004775880102088115
-0.008104010333292465 0.006212528685276642 -0.005744128714422067 0.008052428642455998 0.0016835223918183018 0.0054676088965752625 -0.015749659922018447 -0.004703993586901321
-0.011128624915294726 -0.007908962310842418 0.00512749685676128 0.00567015890044673 -0.012039622917705503 0.012303245467759776 -0.004879243640711178 -0.013357157873430446
-0.017535195116168505 -0.003402976181414373 -0.010052613849955882 0.0031388049561304372 -0.017049502108864287 -0.02694857072166344 -0.004559345707816722 -0.012386968316243358
0.0016642976785646373 0.005883220923155452 0.0011385998762686485 -0.010445699969596028 -0.002295011841070912 -0.016015598244125486 0.018042841975452695 0.006627516538683924
0.0019014745643030036 -0.02726245827513389 -0.004763085558965216 -0.0027159582653562453 0.015369356422624141 0.007649333931146695 0.010097030385287531 -0.00830355676583002
0.005437334373267133 -0.006918690830193798 0.002266342674777863 -0.0007646995639550829 0.00734380067734734 -0.0014244991936444003 0.002888482083686601 0.004741859673279093
-0.010440896395166401 -0.006615661331266611 0.005874381398110379 -0.004781521665785827 -0.007349251736648962 0.007807876793851769 0.011819803274286354 -0.0037488135496285017
00000000: 89cd 8064 44bb 553f 1519 2466 7355 8abf
00000010: 032a a8dd 66f5 853f 4797 a44f 54e0 843f
00000020: a448 ce98 8663 813f 122d 09c3 6375 753f
00000030: 1915 32d5 1058 7d3f 5d35 dbaa a403 733f
00000040: 6240 1180 6d87 65bf 5020 acb5 5c37 f8be
00000050: cd14 6aed dea9 1b3f 606d d7b8 1267 943f
00000060: 0df9 49e9 7d20 723f a22f 45bf 6a80 74bf
00000070: 67df 12c3 e029 7fbf 7aa5 1627 5b4f 6c3f
00000080: 5e96 ac08 c1e7 7dbf f9ee 29eb 8c60 803f
00000090: 9c97 be3e e9f4 8a3f e141 f82f e814 443f
000000a0: 646a 4c59 6c5c 40bf 557e acb5 66a5 72bf
000000b0: a68c 346e 8b37 5f3f bfba 517a 8757 4f3f
000000c0: a30e 25d9 67a0 8bbf 0b06 a5e7 f113 873f
000000d0: 791f 6fcd 9e5b 863f 84b1 83ad 3e70 963f
000000e0: 775a 68f6 22f0 60bf b6b4 a5c3 e61c 733f
000000f0: 98ec 865f f030 88bf 9703 28d8 b97f 723f
00000100: 28b4 57cf 1fb7 82bf 5374 ec9e 4926 89bf
00000110: 8f97 85e1 9e10 68bf 2957 cb58 29e5 773f
00000120: a5e3 a51e e407 763f a2f2 0359 376c 5abf
00000130: e9cf 2e9c 9b2e 93bf 434b 0f66 9b90 80bf
00000140: f4c5 53af 8586 4bbf 123f 7d79 7de9 7dbf
00000150: f72d 3e61 a264 623f be37 4c60 8200 86bf
00000160: c862 9775 6044 87bf 6913 5eec ed4b 7d3f
00000170: afdf d9a5 e736 833f 5350 5eef 51c3 973f
00000180: 5af0 f894 f2f6 28bf d925 5ebf b5df 80bf
00000190: 6082 a36c 5f9c 84bf 18be 46f8 7a27 723f
000001a0: 12ad ca7b 8fa9 7fbf 0d2a f8f1 6677 73bf
000001b0: 4a4d 5740 bed2 7e3f ef87 bed3 5480 823f
000001c0: a510 de02 db40 5fbf 1ab9 8532 552e 8bbf
000001d0: 9edf f67c fb10 5c3f c98d 4bfe ed2d 80bf
000001e0: 39d8 31c7 2972 70bf 98c4 0609 5bf4 573f
000001f0: 4faf aad6 7d68 7fbf bcb6 24c9 5cf9 87bf
00000200: e6d5 73da 498d 7f3f 0837 af89 7013 7c3f
00000210: a92c a4af fcf4 81bf d51f 0f7a c7a9 56bf
00000220: 5235 2776 a82e 873f 932f e717 7b3d 7ebf
00000230: 20b0 be84 7ee2 6dbf 1ee4 716b 45f6 8b3f
00000240: 9162 9941 eec8 893f fe2b 909a 878f 7fbf
00000250: 3614 dfff dd34 52bf 6070 a8cf acf9 77bf
00000260: a626 3abc 346c 933f 2bd9 86be ff64 973f
00000270: 24bd 87b4 99ae 7c3f f517 9723 7037 7b3f
00000280: 303b cb3f 5d9b 7f3f 1e72 55b4 c7ca 8c3f
00000290: 225d ac17 7e57 733f 1d8e 0590 c190 7d3f
000002a0: e949 0e23 4218 723f fe2a 5b85 5c14 4fbf
000002b0: 0428 a5e6 7cf6 733f 394e e316 8e43 66bf
000002c0: 9251 ddf1 037b 773f fa39 7f5b 866c 573f
000002d0: 515a edcf bbb3 78bf 99b7 fad6 40b5 8b3f
000002e0: df95 5604 58c0 6bbf 2db6 4e34 a1f8 513f
000002f0: 924d 97cc 44c7 903f 345e 43c5 4776 7bbf
00000300: b0fd 9330 7724 703f b3a6 c9e8 699b 29bf
00000310: 95c4 95be bded 89bf 4326 8a00 4fb6 553f
00000320: bb11 484e 0507 813f 7d83 96e7 9392 86bf
00000330: 826d e26e 3178 653f 5ff5 dc06 e4d2 663f
00000340: 6c21 66f3 9afd 8abf 5d1d 37ea 5910 6b3f
00000350: d8a2 800a 084d 833f 0918 ce41 7bdf 833f
00000360: c77f 0f32 1246 893f 3a76 3064 741b 6ebf
00000370: 8d7e f4a9 3ed4 833f b354 1ab0 6000 7f3f
00000380: 8ab3 3a4d d9ce 843f a118 ac8c 2990 6fbf
00000390: c99e 9a62 9f1a 70bf aaed fe3e 4c6b 8cbf
000003a0: b4cf bcc9 60c9 7ebf d405 334e 082f 733f
000003b0: 6568 2026 69b9 43bf 1a7c cdb9 56a3 673f
000003c0: fc67 c738 3a4b 753f 06ab a16f b9e3 86bf
000003d0: 94db 26fd 0f85 73bf 5d4c f7f0 eab4 7fbf
000003e0: 69f3 babf f150 703f f126 5c7f d4fe 76bf
000003f0: dee1 a408 d221 6fbf 5a5e 59eb 6dd8 923f
00000400: 485c 679f 997e 7e3f d65d 1250 5f8c 8dbf
00000410: e4a0 f5c3 c9d7 8e3f d114 56d1 6d8b 943f
00000420: 8b2a 3021 28d3 75bf 56ae bf77 67bb 6bbf
00000430: df00 f14a 5e8a 773f 0a6e b3c2 5f0a 7f3f
00000440: a1ee 345d ef0c 713f 9d62 a294 e7a6 49bf
00000450: db32 83a0 9f29 1d3f 586d b6e5 b367 943f
00000460: d806 c11b dcba 8abf 97ac 8aaf eac0 97bf
00000470: 4c36 810c 3cd2 633f df61 f756 c165 80bf
00000480: a121 8856 aa62 7fbf f941 705b e79c 8b3f
00000490: e061 78f6 fe7e 85bf 6c28 5995 f090 7f3f
000004a0: dc12 c20f c70b 873f 94bc bcd1 7405 8ebf
000004b0: afd5 7534 8418 933f 895a 7cbc 4e3b 783f
000004c0: 1b0f dced 5be3 5fbf 63c7 7cb8 58aa 8dbf
000004d0: dc80 aa25 1b04 803f 8101 3321 0c1f 82bf
000004e0: ac7c eb1c bfa6 2cbf f2bd 6e2e 52dd 853f
000004f0: 37c1 5ddb 744a 7c3f 3303 e88c 8668 783f
00000500: a464 cc35 e2c4 873f a36c acdc eda3 74bf
00000510: ea6a d88f b3d7 703f 7ac6 9b24 5c99 4c3f
00000520: ee58 a4cc 92d0 763f 65b5 4e90 b372 85bf
00000530: 3cf0 51d0 3c0f 923f 297f 6c6a 0796 523f
00000540: 555a 7ece c559 9ebf 34be 29db 99b9 833f
00000550: f1a5 66dd d965 633f 83ec 3bc1 ffa8 7cbf
00000560: a49c 6f46 2124 73bf b70c 21b6 c350 75bf
00000570: 2df4 9f94 a205 823f e5a0 b521 f6fc 67bf
00000580: 0b32 bfc7 9b9c 893f 73e0 22ca fcdd 5fbf
00000590: 0c96 1239 0df5 553f 6b59 0eb1 ab54 743f
000005a0: bd8a cc6d f23c 953f 70c2 2c3b 8834 713f
000005b0: cdf8 65b7 117e 94bf aeec d9fd c26a 7b3f
000005c0: 7623 0694 f444 37bf a8b3 3ff8 4aa3 203f
000005d0: 0ecc e3a3 7f97 503f eee0 86f7 b113 51bf
000005e0: 244c 364f e891 833f 6913 9983 ede1 883f
000005f0: 09a4 4f1a 71a0 763f d040 166f 3a33 82bf
00000600: 89a7 9198 47d5 8dbf 210c 62bf 96b2 8ebf
00000610: 59d1 e711 0569 84bf 4ccd 866e 192f 90bf
00000620: 631c ba95 84a5 613f 4c9d 0967 a313 943f
00000630: 4a47 1f6d ea72 713f 52d0 82e2 984c 3fbf
00000640: 4c93 c8da d598 80bf 67a8 75f8 4e72 793f
00000650: 632f 8fcf 2787 77bf 2cbc 61ad ca7d 803f
00000660: 293b 5b67 3495 5b3f f6a7 5e16 3465 763f
00000670: 941b 27c9 ad20 90bf fe81 dca9 7e44 73bf
00000680: ac31 7cc0 9aca 86bf 9b4e c3f3 9232 80bf
00000690: 7d4d f6f4 9100 753f 650f a6b0 9739 773f
000006a0: e571 80d5 3aa8 88bf 5679 59a7 7132 893f
000006b0: b96c dbfd 41fc 73bf 1f03 df61 ff5a 8bbf
000006c0: 5b31 3606 bff4 91bf e350 10ed 8ee0 6bbf
000006d0: 668c ccfd 7696 84bf 68c3 5214 8db6 693f
000006e0: 6cf3 e1b7 6c75 91bf bba6 b1f7 6798 9bbf
000006f0: a9b8 4c0b d2ac 72bf ddd1 84be 565e 89bf
00000700: 2165 6a06 9244 5b3f 338d 5c17 0119 783f
00000710: 50de d54e a2a7 523f 56a4 061e 8e64 85bf
00000720: ac83 a419 fdcc 62bf c7d1 bc9a 6466 90bf
00000730: 608a d8a0 d279 923f b8f8 986c 7425 7b3f
00000740: efc5 57c4 5c27 5f3f 2c12 cd9a b0ea 9bbf
00000750: 8ac9 420b 7582 73bf 6908 aafd c63f 66bf
00000760: 36df 9019 f879 8f3f bf98 2071 e854 7f3f
00000770: c00c 557a c0ad 843f eb6c ff85 7401 81bf
00000780: a636 f854 7545 763f 7590 8ced c556 7cbf
00000790: e02e 6e75 dd90 623f f073 29cf c30e 49bf
000007a0: ad00 cd7b 8814 7e3f f9d9 ca5c c856 57bf
000007b0: a95a b402 96a9 673f e8d6 8043 336c 733f
000007c0: ae1e 7764 0962 85bf b57d f210 0619 7bbf
000007d0: 146a d33f bc0f 783f 01e9 dff2 c995 73bf
000007e0: 3c60 bebd 3f1a 7ebf 9251 b1f7 26fb 7f3f
000007f0: 4cd2 1024 fb34 883f c6c8 05f3 d4b5 6ebf

bi f8 [1, 128]
0.001950913422956128 -0.0028776677009745145 0.014329457250422364 0.011082773391586533 0.005737680080030104 -0.004418261369446211 -0.022473480581037958 -0.0038822547749525686
-0.0068637413454462 -0.01570352125903714 0.0054701961790872625 0.011376320648788362 -0.007030238211328775 -0.009058968860159871 -0.007974022604248064 0.011323140944405525
-0.007730179299635499 -0.0021759017051724023 0.0016688192861994936 -0.0031533847489573 0.013339829099288117 0.006670102221562509 -0.006503411969379113 -0.013280486265884645
-0.011311913904738187 -0.004494856199884106 0.002429702422852965 0.0017408268760126257 -0.011893168974106659 0.010395029004786567 0.005974665947059817 -0.007608989986443434
-0.024050925927869733 -0.003555575983292744 -0.015219114775244782 -0.01261221089628166 -0.002807875339023461 -0.011037375881984376 0.015748108602954506 0.01060430564218595
-0.0003677455745796563 -0.014162595743978492 0.0018058708678269897 0.012080811595026915 0.010562125450801178 0.016100378807839308 -0.00784990372838592 -0.01685681632271808
0.007552169947895894 -0.002909653689522852 -0.0016065081036016526 -0.03965257981150156 -0.0011240564381261747 -0.0014983716320131676 -0.010242289165637759 -0.0009839551484308803
0.005608832215096266 -0.009862061473953541 0.004794357336951269 -0.0002595452091309685 0.006463847741521747 -0.007632236919763774 -0.004566906393374251 0.01374766393539421
0.0015416777143828322 0.02203345345167046 -0.013729358712223048 -0.004847264426054317 -0.011007240899425567 -0.006226348583993023 -0.018091893592469613 4.7421930588047205e-05
0.011378763108733134 -0.009621859677686551 -0.006571422384664386 0.001311609749833633 0.011221836708004244 0.000201579222479901 0.0089904725215379 0.00638046392795025
0.0014608926278427896 -0.0051293129293420725 0.02540342370543022 -0.0101875171062982 -0.007939678382996624 -0.001944911132736981 -0.016876696815264318 -0.008959500308522186
-9.994618763978455e-05 0.005574887604945094 -0.012399209037918963 -0.003025235216320411 0.010408876544311947 -0.009834531407295522 -0.002663565715599958 0.005331274222981232
-0.006684341945345971 0.0013514321251349175 -0.0017011730514048162 -0.01848740469342197 -0.004176422242710547 -0.0011233939400911981 0.013571481534895546 0.008029546400921269
0.009094521347410268 -0.0014063004288557513 0.001188719529683271 0.015427173861537942 -0.01215176514425771 -0.013952963103953579 0.0028052169368890894 -0.00798527333373504
-0.013916823546376933 -0.00941395786048557 -0.00026687197585181717 -0.012214131832896798 0.005710893790659256 -0.0005704560143431274 -0.0006373996854974068 0.009906273652777233
0.005710748265026463 -0.006882420010142533 -0.008556033327081089 0.0033992706022022276 -0.0059710592257929485 0.006784041087231494 -0.0009057812182116577 0.007675173394161972
00000000: 45c5 5456 b9f6 5f3f df19 4315 e892 67bf
00000010: ce77 1432 c358 8d3f 6172 20aa 90b2 863f
00000020: b23a c7c4 6480 773f 6a27 6401 e218 72bf
00000030: 28cc 7dc0 4903 97bf 6f93 61a9 adcd 6fbf
00000040: f9d6 b589 271d 7cbf 155b f578 9514 90bf
00000050: e8f4 119b ea67 763f 4635 15e9 774c 873f
00000060: 1842 3633 bdcb 7cbf 7640 eb37 828d 82bf
00000070: bf27 6c32 af54 80bf 2a90 5a40 9630 873f
00000080: 8ee1 8b34 aea9 7fbf 8482 3755 32d3 61bf
00000090: f252 7510 8957 5b3f cd8f ca8b 20d5 69bf
000000a0: 08b2 b98d e951 8b3f 0800 71ee 1b52 7b3f
000000b0: 99cc 885b 52a3 7abf 8ae0 7eb1 cc32 8bbf
000000c0: 0449 3562 b32a 87bf 0642 0fc6 3269 72bf
000000d0: 9ccb 3e8e 74e7 633f 06bc 07a0 8e85 5c3f
000000e0: 8c14 511e 725b 88bf 24a7 ee2c fd49 853f
000000f0: c9e9 8d2d e478 783f 7c9c 5bb2 9a2a 7fbf
00000100: 62e3 3151 cea0 98bf 6049 2252 9520 6dbf
00000110: 9bb6 de01 332b 8fbf 1966 a34a 6ed4 89bf
00000120: ba41 1398 8a00 67bf 7802 9383 c39a 86bf
00000130: 01b6 b1ad 4520 903f bf97 70cf b5b7 853f
00000140: 6d41 5037 bf19 38bf 41f6 5f6c 4701 8dbf
00000150: 7603 5c14 5f96 5d3f 31a0 ad15 d3bd 883f
00000160: 4f7a 197b 98a1 853f 3c45 bb21 9e7c 903f
00000170: 8c42 523e 9c13 80bf 8373 48cb e942 91bf
00000180: 9b6e 0a2f 06ef 7e3f 9cd0 0d6e fcd5 67bf
00000190: 57b0 01f1 2e52 5abf a91f fcca 574d a4bf
000001a0: cac1 ff68 a26a 52bf 1834 084a a08c 58bf
000001b0: 8a4d 05c8 e8f9 84bf 603a bacb 011f 50bf
000001c0: 2de3 eb6e 49f9 763f 0ca1 037c 8f32 84bf
000001d0: bd0e 7b7f 3fa3 733f 6f80 5f2f 7202 31bf
000001e0: f6a0 7fea d579 7a3f 7a8b 73ff fa42 7fbf
000001f0: 36ac a799 bfb4 72bf 16c8 fd37 bc27 8c3f
00000200: afcf 4fd7 4342 593f 10b1 f807 f08f 963f
00000210: ccf9 4f55 231e 8cbf 7ca0 f5a2 b9da 73bf
00000220: 2233 75dd f68a 86bf cbfd aab8 cc80 79bf
00000230: 34a0 356d ae86 92bf 6cc2 be20 dddc 083f
00000240: d815 5ebb bf4d 873f 2d90 2325 a0b4 83bf
00000250: aa74 afc3 a2ea 7abf 09f9 c23e 4a7d 553f
00000260: 3ca2 4b6d 79fb 863f bac3 1156 e06b 2a3f
00000270: 630d a5cb 9869 823f a32f 76be 6622 7a3f
00000280: 5eb4 cf83 6def 573f a003 8574 7902 75bf
00000290: 97c3 15e8 5a03 9a3f 9055 6466 31dd 84bf
000002a0: 9740 f797 ad42 80bf fddb 5b6d 8cdd 5fbf
000002b0: 4e55 8bf3 1f48 91bf 2e43 82c6 5b59 82bf
000002c0: aae8 d86d 4633 1abf 1fe7 127f b1d5 763f
000002d0: 5d56 83aa c164 89bf 6941 23ca 60c8 68bf
000002e0: 6472 c4c2 3f51 853f c765 2076 2024 84bf
000002f0: 99b9 74f4 e6d1 65bf 357c f006 3fd6 753f
00000300: 1705 cf60 0a61 7bbf 8718 ef31 5124 563f
00000310: d73d b8a7 3cdf 5bbf b045 2fba 5cee 92bf
00000320: 12cd 25cf 4b1b 71bf f903 ed0e db67 52bf
00000330: 931e ce6a 5dcb 8b3f 91a3 8c79 cb71 803f
00000340: f446 14fe 25a0 823f ec16 6b96 730a 57bf
00000350: 7146 43e0 d979 533f 11dd a339 4898 8f3f
00000360: 67ea 104f 06e3 88bf cfcf b501 5f93 8cbf
00000370: 3766 1160 f7fa 663f 584a 8b3e 955a 80bf
00000380: 0d96 f76f 6c80 8cbf 2ffa 1709 a047 83bf
00000390: f39d 9368 5e7d 31bf 11ac 2b06 b903 89bf
000003a0: 812d fd60 4e64 773f bcd7 73f6 54b1 42bf
000003b0: 8a61 df66 e5e2 44bf db46 e98a bd49 843f
000003c0: e32b 8b50 2764 773f 283d c68d bd30 7cbf
000003d0: f81d 965a d385 81bf de82 2282 c9d8 6b3f
000003e0: 4960 8e01 1c75 78bf e489 ab29 95c9 7b3f
000003f0: b989 d25a 3eae 4dbf cd3f 81ab 0070 7f3f

Wc f8 [228, 128]
0.007091210329940389 0.005257956639954438 -0.01464628232282738 0.004867677352318012 0.008038220703667654 0.002160026325688494 -0.0018553957132147233 -0.0034506073471390936
-0.004601834245089179 0.005676961411478953 0.0031294670616063215 -0.013003722330692531 -0.0137216260672356 -0.008909643077716066 0.009822802860977847 -0.008260697019340284
-0.004737571294857431 0.006627188020509824 0.0037277050520178757 0.0058210138109167165 0.008501478750165702 -0.00219508290615906 -0.0016719475319837477 0.019523983765094687
0.0007160519564262813 0.007457882080833633 -0.00040179521110282775 -0.007436153130946333 0.026744290536732735 -0.0058072138592864435 0.010924880027914424 0.014400044612549913
-0.012535363124950556 -0.014705129117215738 -0.0009993257315401975 -0.007415348263956804 0.0201518371074049 -0.017745436052300983 -0.002038391659748776 -0.005688887299570718
0.005989764935479775 -0.005175595800413479 0.002789077967109852 -0.0010165323854012585 -0.004958018691276793 0.00833876649419697 -0.005538168632655357 -0.01607448542201785
0.024884126984829207 0.007688002405808179 0.015949049896715823 -0.004345380973813098 -0.006313922285103502 -0.013792663249662263 0.014250438259999745 0.024163059781390436
-0.003287541834468229 -0.021200449964290154 -0.010833968383479615 -0.010311860092992557 0.005401894092918132 0.0010209582516442063 0.010490611380452578 0.00014364961630853392
-0.009603480842264376 0.004826676588946621 0.02313919965455552 -0.007488625247904092 0.016360154242501684 -0.005961661268282375 0.0019462747596001335 -0.0038591607911762915
0.006355689744044319 0.01143257886500197 0.021289001616710476 -0.006188528825059842 -0.01414559190459661 -0.0007633277395551422 0.02386771196582225 0.012853720481337346
-0.028380666469452604 -0.012859338856077082 0.0034469207368819175 0.014198401904421096 0.0071692297518350994 -0.006694228543323746 -0.00424806403871838 -0.005148375737601619
0.004982921729381314 -0.004129506718222938 0.0016760205947985553 0.0009161793901481697 0.007278946222430628 0.005831517641682789 -0.010452136936219903 -0.018415397812756553
-0.0068600727901986895 0.010463466509698633 -0.001250954856352218 0.007092523404025061 0.018599083835467326 -0.021433664202197465 -0.0034835027746031003 -0.0010858439343726018
0.0177596330420121 0.001727438893266436 0.0002036168305203305 0.015647601125568334 -0.004482645267715686 -0.0019450696328120924 0.006797847440773332 -0.00011727442946213023
0.009064603447683013 0.0027694254048337896 0.007204382795217847 -0.007168774558759157 0.023311512483622423 -0.008509331271041977 0.008775819996896177 0.02341227015303772
0.01998860445341584 0.011916931887769922 -0.015711052590568802 0.019245902144235504 -0.012086431019337268 -0.008940563581035616 0.0069890755709637485 -0.00872369330898063
0.015830720795933544 -0.012330932782413092 -0.005568937217604167 -0.010473871064470838 0.0006605788337634954 -0.0028510760841806222 -0.007139930341266477 0.016367723077644943
-0.009785599390319923 -0.004611210060446266 -0.02490003049718913 0.0066522184966739985 -0.008466051708432598 0.014545217456870629 0.00026480370109738233 -0.0061091159173174425
-0.009009735484254211 -0.006361723182051553 -0.011273631782222791 -0.010934179611359606 0.004201410084889003 -0.002695895324376101 0.001905774314000914 0.01094674158056623
0.008261332249474548 0.011692281222971475 0.001983282837524914 0.0021157202682157896 -0.017557592315621443 -0.009141885259823668 -0.0076401216033683645 0.0016493422975867185
-0.012981543674759035 -0.005208189329644471 -0.010415782006674066 -0.0005946965529064602 -0.002124096669035987 0.0031480685844955075 0.01446699980030379 -0.014722447863049819
-0.017279935036184385 0.0031145549910686653 -0.015150392218461687 -0.010595151514837552 -0.008857893283325457 0.007434796574061765 -0.013678233692388415 0.0010667546916977165
-0.007237679853095529 -0.0003407947912162834 0.007234278102647397 0.01639010133596145 -0.003514881892667075 -0.00511427653471005 -0.01893681399300872 -0.012717878895749423
-0.01493376117762699 0.0038520991104265137 -0.006792988487061815 0.017074173738372667 -0.008158949749298544 0.006192530904381998 0.011012926785041809 -0.009038420990785714
-0.003419334800563521 0.009275596563737094 0.02305937824124785 -0.008125208117885852 0.0010530173479950916 0.024288572335439365 -0.022612431958195317 -0.007446745850560031
0.002569511231308208 0.005759764284634075 -0.003936804470664077 0.008948192057370309 -0.013823363347713166 -0.004983412092310485 0.008600256263859032 0.01659201241257289
-0.013215261927931361 -0.000478765287812752 0.008374909995254419 0.00720581019171717 0.010911139915213574 -0.005317702662015479 0.009095140731844354 0.0196247491910652
0.0016162149429108702 -0.013792831734772623 -0.005557433628528024 0.013444244518209726 -0.0097324979366714 0.0006711313127397623 -0.005196644314171563 -0.007713405795481316
0.002108628278573831 0.004958682223034406 0.015020201660016531 0.003116081601292933 0.0010813561726722525 -0.0028373489685496692 -0.0031211866622936693 -0.004955062078780928
0.004340943513976994 0.009653872166744478 -0.0018185394323580564 -0.016959995977977958 -0.00035682767220203475 -0.023907526425638096 0.004970340768147027 -0.005957282268365265
-0.006302879390430171 0.01559775073156154 0.013354014662568758 -0.02249051853873115 -0.012103555385044604 -0.0007493400395423731 0.004312473910504341 -0.00977019483069366
-0.007337867667353169 0.008120478364161762 -0.009248826152883052 -0.004782403093845536 0.018808695995046767 -0.01032823595524831 -0.027794595359808376 0.012833408136850489
00000000: 5965 4c47 ac0b 7d3f 088d fffc 5d89 753f
00000010: 3c1c adbc defe 8dbf 342b 9230 21f0 733f
00000020: ba7f 52b8 5776 803f 54b2 ac4d e7b1 613f
00000030: 938a 33fa 1766 5ebf 0933 a2b6 7244 6cbf
00000040: 6a2c 5979 5fd9 72bf 4cb5 a5b9 b940 773f
00000050: f14c dfd5 f7a2 693f 24bc 1711 b2a1 8abf
00000060: c45b a779 151a 8cbf 1943 1a0d 383f 82bf
00000070: d6f8 5748 fa1d 843f bc64 52fc fbea 80bf
00000080: 16d1 611c b467 73bf 4222 003d 1c25 7b3f
00000090: a49d 3369 9089 6e3f 09c3 287f c6d7 773f
000000a0: 39c8 9829 3969 813f 9322 6829 6cfb 61bf
000000b0: 1ba4 1cfe a764 5bbf 03ed 085f 18fe 933f
000000c0: 855a 17de ad76 473f 7357 27fa 278c 7e3f
000000d0: 1e9f 974a 0155 3abf da5f 1628 5f75 7ebf
000000e0: 7507 d7f4 da62 9b3f 3547 b419 4ec9 77bf
000000f0: 63ff 7593 c85f 863f 27ef 5f45 c57d 8d3f
00000100: 9738 52f5 23ac 89bf ea9b 2205 b91d 8ebf
00000110: bae8 70d5 795f 50bf 51aa 8364 8e5f 7ebf
00000120: e98e 52e5 aea2 943f 6bd7 fd0d dc2b 92bf
00000130: 6e5f 7b30 d1b2 60bf 6fc3 6f0e 3b4d 77bf
00000140: 9447 2348 b988 783f 7392 336b 0133 75bf
00000150: 618e f3d4 1ed9 663f 999c 7056 a5a7 50bf
00000160: 1fa2 1c02 dc4e 74bf 876d 0d4b ea13 813f
00000170: a305 83d2 30af 76bf 0419 c074 d475 90bf
00000180: 3b7f 5b7e 397b 993f 31e5 786e 747d 7f3f
00000190: b5ac d59e f254 903f 832f bd52 76cc 71bf
000001a0: 6786 959b a0dc 79bf da04 a8ec 533f 8cbf
000001b0: 8e30 3e72 552f 8d3f 3f24 217e 33be 983f
000001c0: 1188 3995 79ee 6abf ff47 071d 92b5 95bf
000001d0: 44bf 249f 1e30 86bf fcf4 e16e 621e 85bf
000001e0: fcd8 72e7 4b20 763f b906 4a93 35ba 503f
000001f0: 754b 5a06 1a7c 853f e6e0 e9ce 14d4 223f
00000200: c58c 2961 fdaa 83bf e6f9 9021 23c5 733f
00000210: f074 1667 cdb1 973f 280a 8288 64ac 7ebf
00000220: 9b5b b75d b7c0 903f 9f69 d542 416b 78bf
00000230: 0dbf 419c 44e3 5f3f c060 6b2c 3f9d 6fbf
00000240: 7ad0 8179 6c08 7a3f 5749 acc2 f669 873f
00000250: cc42 d5b6 c8cc 953f 14af 9f8e 2459 79bf
00000260: 3306 e734 5df8 8cbf d0f0 b8d6 4103 49bf
00000270: da51 4b09 c770 983f b14d cb28 0d53 8a3f
00000280: 45c8 4c49 d20f 9dbf d825 ae3e ff55 8abf
00000290: 142a c77a b73c 6c3f b2fb ad3e 0d14 8d3f
000002a0: 0772 2575 7b5d 7d3f c3fd a54a 686b 7bbf
000002b0: 1aba e101 6b66 71bf f471 ba96 7616 75bf
000002c0: 090a dcdd f868 743f c9a4 da04 1aea 70bf
000002d0: 34e0 1769 bd75 5b3f 9a5e 4c42 7805 4e3f
000002e0: 754c 983f 87d0 7d3f 15c7 e918 cae2 773f
000002f0: add8 8312 ee67 85bf 77fc 646d 7cdb 92bf
00000300: 4c69 83c4 4e19 7cbf 3711 b2b3 de6d 853f
00000310: a574 988c e27e 54bf c9fb 0fc1 0c0d 7d3f
00000320: d14e 3c63 a30b 933f 36a6 20db b4f2 95bf
00000330: 391d c24f 6f89 6cbf dabb f20b 5cca 51bf
00000340: 9ce8 6acc 942f 923f 18d0 5a63 674d 5c3f
00000350: 1a37 8941 3fb0 2a3f ed73 61bc ec05 903f
00000360: 7bc6 30ed 645c 72bf d418 879d 36de 5fbf
00000370: 42a4 0f47 0fd8 7b3f 2f6f 565b 27be 1ebf
00000380: 443f df7a 7690 823f aeef 5bf1 e7af 663f
00000390: 82a9 e4c7 5782 7d3f d52a 8444 015d 7dbf
000003a0: 2727 f31e f9de 973f 61de 281c 576d 81bf
000003b0: 16da 0e9f 0ef9 813f 8497 87da 62f9 973f
000003c0: f42e ae89 e477 943f 1a24 d085 e767 883f
000003d0: fbb8 3fe4 8e16 90bf 0381 2aa1 32b5 933f
000003e0: 4397 a04f c5c0 88bf 1dc1 8121 6e4f 82bf
000003f0: 93e0 1ab0 93a0 7c3f d401 b34b badd 81bf
00000400: 2bd1 5cb0 ed35 903f 1eb3 3cc8 f540 89bf
00000410: d0c3 9133 74cf 76bf beb2 792d 5373 85bf
00000420: eb90 643e 56a5 453f 9161 47d1 235b 67bf
00000430: 01bb fb74 c23e 7dbf 4f5a 504d b3c2 903f
00000440: e150 d3ea 780a 84bf e340 7946 34e3 72bf
00000450: bd8b 9ec2 647f 99bf 2498 394e 5b3f 7b3f
00000460: 3332 b639 a656 81bf b3e0 520a e2c9 8d3f
00000470: fd47 6f3c ab5a 313f 005a 2851 df05 79bf
00000480: 00fd 003a b273 82bf 9fb9 3510 c00e 7abf
00000490: 5f8d 7e3e a116 87bf 990c b7be a864 86bf
000004a0: c240 966e 7f35 713f 2464 0dc8 b315 66bf
000004b0: 1e4b 8a96 6539 5f3f 98bb b0c8 3e6b 863f
000004c0: b8be a93e 51eb 803f b112 bf6b 1ff2 873f
000004d0: 01df a0dd 3e3f 603f acc9 80ab fc54 613f
000004e0: f41a 2b13 9efa 91bf dac2 b711 fbb8 82bf
000004f0: 0b6b c886 3f4b 7fbf c647 98ce d705 5b3f
00000500: 4e09 474c 1196 8abf d5a5 79ad 2e55 75bf
00000510: d2be a598 de54 85bf 6ca0 751f ad7c 43bf
00000520: c402 44b7 8d66 61bf 770d b673 fac9 693f
00000530: 98bc 1bd8 dfa0 8d3f 5cfe b580 cd26 8ebf
00000540: 98fe 6dcf d4b1 91bf 85e3 80fa b183 693f
00000550: 7586 cc38 2b07 8fbf 2ce6 042a e9b2 85bf
00000560: 13ec b44f 1624 82bf 0148 3502 f373 7e3f
00000570: 84bf 0173 5503 8cbf 4266 e020 4b7a 513f
00000580: f893 49e4 41a5 7dbf 5cb7 a07b 9655 36bf
00000590: 5bd1 c6bd b0a1 7d3f 2a44 dd14 91c8 903f
000005a0: 7ce5 e7d8 3dcb 6cbf da35 5927 b5f2 74bf
000005b0: 9e60 2913 2c64 93bf 1930 74cf d40b 8abf
000005c0: 72d8 e97e 9795 8ebf 224e 68f6 6f8e 6f3f
000005d0: a9f7 4df6 f6d2 7bbf 9008 4067 e47b 913f
000005e0: c359 beb2 a3b5 80bf 0caf 6bdb 565d 793f
000005f0: 6cfe ff02 f28d 863f 1bd4 8054 bc82 82bf
00000600: af51 8f64 dd02 6cbf b71a 237f 15ff 823f
00000610: c925 a6ad e09c 973f 3ab9 1df9 f2a3 80bf
00000620: 73b5 97c4 ac40 513f 8493 637f 1adf 983f
00000630: 4851 f99e b627 97bf f188 3c9e 7a80 7ebf
00000640: e6c7 90d6 a70c 653f e943 c3f3 8c97 773f
00000650: 3d69 3ce7 0920 70bf 4736 f501 6e53 823f
00000660: fe43 fe6b 6c4f 8cbf 20eb 577f 7c69 74bf
00000670: 28bb 1fdb 029d 813f 7a4f bf1a 7ffd 903f
00000680: 97ed 4e6e 9a10 8bbf 03f7 ec40 5960 3fbf
00000690: 9fe0 4a64 dd26 813f f86f d5f1 d683 7d3f
000006a0: 998b c868 9458 863f 0110 5ff0 03c8 75bf
000006b0: 3a60 f71f 79a0 823f 2b0e df9f 8218 943f
000006c0: 17d0 ad94 e57a 5a3f f8b8 c289 6a3f 8cbf
000006d0: 138f f23a 64c3 76bf 947b 33f4 a788 8b3f
000006e0: b868 c5c2 a1ee 83bf b99b 0f85 dbfd 453f
000006f0: 0f90 0d96 1349 75bf 142f 1e9a 1798 7fbf
00000700: fe5f de2f 1d46 613f 74c2 aa1f 8e4f 743f
00000710: 14d4 4557 e9c2 8e3f d30d 3792 e586 693f
00000720: 2bb6 6759 89b7 513f b450 df20 5a3e 67bf
00000730: 10d7 7454 9a91 69bf 768b 3f59 c24b 74bf
00000740: 292f d226 cfc7 713f 6b30 e3c9 68c5 833f
00000750: 2f99 dcd8 81cb 5dbf a948 4310 f65d 91bf
00000760: 0bc9 b22e 9362 37bf 8167 81f0 367b 98bf
00000770: 5663 c9b0 c75b 743f ac2e 40c8 a966 78bf
00000780: 7ff6 a34d 0cd1 79bf 3707 44aa b6f1 8f3f
00000790: 66e2 f781 5959 8b3f b62f 6026 c107 97bf
000007a0: 854c 5ab4 bfc9 88bf 9846 517b eb8d 48bf
000007b0: 5648 91e6 f4a9 713f 8fe0 2f5a 6502 84bf
000007c0: be61 75da 4f0e 7ebf 8bfe 0328 78a1 803f
000007d0: 4efd d26e 0cf1 82bf 4352 268e b696 73bf
000007e0: 646e b738 9642 933f 6dad 395d f826 85bf
000007f0: aec0 4db8 2f76 9cbf adb2 f3e1 6648 8a3f
